…
\> conda deactivate

conda install tensorflow 
conda install pandas

=============training=================
python rt.py train -data deepdia -logs logs-train-deepdia -epochs 2 -n_layers 4 -n_heads 8 -dropout 0.1 -batch_size 64 -d_model 64 -d_ff 256


=============test=================
python rt.py predict deepdia-b64-dm64-df256-nl4-nh8-dr0.1-ep2/ -data deepdia -output output.txt

 Layer (type)                Output Shape              Param #
=================================================================
 input (InputLayer)          [(None, 51)]              0

 transformer (encoder_block)  (None, 51, 64)           204736

 CLS_token (SlicingOpLambda)  (None, 64)               0

 predict_1 (Dense)           (None, 512)               33280

 predict_dropout_1 (Dropout)  (None, 512)              0

 predict_2 (Dense)           (None, 512)               262656

 predict_dropout_2 (Dropout)  (None, 512)              0

 output (Dense)              (None, 1)                 513

=================================================================
Total params: 501,185
Trainable params: 501,185
Non-trainable params: 0
_________________________________________________________________
2024-10-21 11:27:35.038151: E tensorflow/core/framework/node_def_util.cc:675] NodeDef mentions attribute epsilon which is not in the op definition: Op<name=_MklFusedBatchMatMulV2; signature=x:T,
…
